models/lstm_model.npz (npz, 2208 bytes, 4 tensors)

w f4 [60]
000000 3d ee 44 3c ac 04 ea 3c b7 bd f6 3c 7d 1e 5a 3d
       0.012019691 0.02856668 0.03011976 0.053251732
000010 fb b8 0f 3d 86 77 58 3d 2b b0 49 3b a2 0e d8 3c
       0.03508852 0.05284836 0.003077517 0.026374165
000020 c8 a4 0d be 3a b4 05 be dd 4e 00 3d f0 2c f0 bc
       -0.1383239 -0.13057032 0.03132521 -0.029318303
000030 93 c8 96 3d df ee d2 bc 98 af 6f 3b bb e8 a7 3c
       0.07362475 -0.025748668 0.0036573168 0.020496717
000040 41 65 8c 3d 9c 7b 54 bd da 46 9b 3d 71 50 3b 3d
       0.0685525 -0.051875696 0.07581873 0.04573101
000050 75 1d 10 bd 7e ae 4f bc 2b db 10 be f0 eb f0 ba
       -0.035184342 -0.0126758795 -0.14146106 -0.0018380862
000060 80 2b 16 bc ba 0d b8 ba 72 4f 27 bd e1 8d fb bd
       -0.009165645 -0.0014042177 -0.04084725 -0.12282921
000070 9a 6f 84 3c 95 5f de bc e3 bf 68 bd 70 97 02 3e
       0.016166497 -0.027145186 -0.056823622 0.12753081
000080 c3 e9 08 3d 98 56 65 bd 3e 78 cf bd 64 37 d4 bc
       0.033426058 -0.055990785 -0.10130356 -0.025905319
000090 ba 26 f1 3d dc 0d 98 3d 52 d4 9e bc 33 73 2e 3d
       0.11774965 0.074245185 -0.019388352 0.04259033
0000a0 7d 87 73 bd a7 e6 a1 bd 4b 33 32 3e 1d 86 1f 3e
       -0.059455384 -0.079053216 0.17402379 0.15578504
0000b0 bc cc c4 3c c2 f6 f0 3b 91 38 4f 3d 80 4f f2 bc
       0.024023406 0.0073536346 0.050591055 -0.029578924
0000c0 94 c3 08 3e ae 5d a0 3d 1e b8 66 bd eb 13 07 bc
       0.13355857 0.07830368 -0.05632793 -0.008244495
0000d0 26 fb a5 3d 69 37 0e 3d de 4d f9 3d db d7 6d bd
       0.081045434 0.034720812 0.12173055 -0.058067184
0000e0 cb 59 01 bd 8b a7 cd bb 37 c9 73 bd e0 e8 2a 3c
       -0.031579774 -0.006276076 -0.059518065 0.010431498

b f8 []
000000 00 00 00 60 0b 30 97 3f
       0.02264421246945858

mu f4 [60]
000000 06 b3 02 3e 3c 0c 85 3d 5f 60 35 bd a1 39 51 3d
       0.12763605 0.06496474 -0.04428136 0.05108035
000010 75 85 0b bd ec dc d8 bd 0b 86 97 bc 5b e7 e6 3c
       -0.03406282 -0.105890125 -0.018496534 0.02818649
000020 d4 fa 14 3e 8b fc a3 3d 36 d3 f3 bd 66 b6 eb 38
       0.14548808 0.08007153 -0.1190552 0.000112396476
000030 8b 30 97 3c 77 74 8c bd eb bb 11 bd fe 0a 5b bd
       0.018455764 -0.068581514 -0.035579603 -0.05347728
000040 79 77 18 3e df 36 66 3d 80 71 1a 3d c2 2b b6 bd
       0.14889325 0.056204673 0.0377059 -0.08895065
000050 2d 65 3e bd 9c 67 bc bd 66 63 a0 3a b3 9e 8d 3d
       -0.046483207 -0.091994494 0.0012236654 0.06915035
000060 5d c2 61 3c 96 6b 32 3e 65 45 00 bd b7 00 51 3c
       0.01377925 0.17423853 -0.03131618 0.012756518
000070 cf c0 db 3b 8e 9f 6a 3e cf e2 d4 3c 22 13 04 bd
       0.006706334 0.22912428 0.025987057 -0.03224481
000080 d3 c5 7d bd 1f 7b ef bd 87 55 e6 3d 44 4d 32 be
       -0.061956238 -0.11693405 0.11246782 -0.17412287
000090 76 98 cb 3d 79 a6 07 be 97 7e 0b 3c 13 e8 d5 3d
       0.09941189 -0.13247098 0.008514068 0.10444655
0000a0 6a 6a 06 3d 4f 38 76 3d f0 5f 99 bd a3 52 47 bd
       0.032816328 0.060112294 -0.07489002 -0.048662793
0000b0 07 73 c1 bd 2a a5 f6 3d d9 02 5b 3d f9 85 45 be
       -0.09445768 0.12043221 0.053469513 -0.19289388
0000c0 6a 4a 6e 3d fd f2 04 be b3 22 73 bd da 8a d7 3d
       0.058176436 -0.12983318 -0.059359264 0.10524531
0000d0 be cd 1d 3d ea 0a c8 bd a9 d5 35 bd 82 67 72 be
       0.03852629 -0.09767707 -0.044393215 -0.23672298
0000e0 e1 66 17 be d1 4e 99 3d 26 2c 9d bd 43 5a b7 bd
       -0.14785339 0.07485736 -0.07674436 -0.08952763

sd f4 [60]
000000 aa 86 80 3f 18 aa 8d 3f e5 05 7c 3f c6 39 7a 3f
       1.0041096 1.1067533 0.98446494 0.97744405
000010 fb 2d 7e 3f 76 d2 7c 3f 4a a4 8d 3f f2 d3 85 3f
       0.9928891 0.9875864 1.1065762 1.0455306
000020 df fa 8a 3f 7a 1f 76 3f 7d fd 7f 3f 0f 16 86 3f
       1.085781 0.9614178 0.9999617 1.0475482
000030 3a 84 64 3f bb 65 7f 3f dd 6a 80 3f fa d8 87 3f
       0.8926426 0.99764603 1.0032612 1.0613091
000040 19 8c 87 3f 08 69 70 3f e0 4c 76 3f 2a 1c 80 3f
       1.058963 0.93910265 0.9621105 1.0008595
000050 74 aa 7b 3f cf 17 85 3f fe 8e 82 3f d6 c7 73 3f
       0.98306966 1.0397891 1.0199888 0.952268
000060 01 31 66 3f f0 cd 84 3f b3 fd 8c 3f 01 56 5e 3f
       0.89918524 1.0375347 1.1014923 0.8684998
000070 02 99 83 3f 1d 46 7b 3f 40 0c 6c 3f 05 27 88 3f
       1.0281069 0.9815386 0.9220619 1.0636908
000080 bf 20 6d 3f d3 2d 82 3f b5 52 6d 3f 72 82 73 3f
       0.9262809 1.0170234 0.92704326 0.9512092
000090 db 1d 7e 3f 1e dc 4d 3f cd d9 81 3f 62 e2 6f 3f
       0.99264306 0.80414 1.0144593 0.9370481
0000a0 8d 9f 76 3f 85 7e 84 3f 25 02 71 3f 55 a7 84 3f
       0.96337205 1.0351111 0.941439 1.0363566
0000b0 36 bd 6b 3f 37 a3 79 3f c0 7e 80 3f 9d 40 90 3f
       0.9208559 0.9751467 1.0038681 1.1269718
0000c0 4b af 6b 3f b7 34 89 3f 31 d9 80 3f 3e 37 82 3f
       0.9206435 1.0719212 1.0066282 1.0173109
0000d0 4c 92 70 3f 10 ab 85 3f 97 3c 64 3f 46 c5 98 3f
       0.9397323 1.0442829 0.8915495 1.1935203
0000e0 4a 31 80 3f 7c 88 7d 3f 13 b9 81 3f 29 c7 88 3f
       1.0015042 0.99036384 1.0134605 1.0685779
