models/xgboost_model.npz (npz, 1090 bytes, 4 tensors)

w f4 [6]
000000 55 bb ca 3e 41 5a 64 3e c0 1b 0f be 46 32 d9 bd
       0.39596048 0.22300054 -0.1397543 -0.10605292
000010 34 74 52 bd 64 e8 f2 bc
       -0.05138035 -0.029651828

b f8 []
000000 8b d7 d1 e5 9a 4c c1 bf
       -0.13515030118622592

mu f8 [6]
000000 12 f2 50 af 48 8f b3 bf dc 77 13 ec 2d 60 b3 bf
       -0.07640508918934355 -0.07568633092475302
000010 6f 00 a6 ef ae f7 a3 3f b9 20 9e 55 d0 51 75 3f
       0.038999048952064956 0.005204976850912307
000020 02 1c 16 85 15 16 a4 bf d3 c3 e4 03 98 70 bc bf
       -0.03923098802174964 -0.11109304518755829

sd f8 [6]
000000 98 43 aa 17 87 54 f1 3f 29 31 d1 a4 d4 10 ee 3f
       1.0831366466920596 0.9395545214734159
000010 e8 bd da 18 8a 18 ed 3f e9 b5 cd 03 28 a1 ee 3f
       0.9092455373228718 0.9571724008835051
000020 05 9d d7 f2 7c 11 f0 3f 8b c3 73 d6 0e c3 ee 3f
       1.004269550898074 0.9613107861060696
